…
/usr/local/lib/python3.10/dist-packages/keras/src/layers/preprocessing/tf_data_layer.py:19: UserWarning: Do not pass an `input_shape`/`input_dim` argument to a layer. When using Sequential models, prefer using an `Input(shape)` object as the first layer in the model instead.
  super().__init__(**kwargs)
model.compile(optimizer='adam',

              loss=tf.keras.losses.SparseCategoricalCrossentropy(from_logits=True),

              metrics=['accuracy'])
model.summary()
Model: "sequential"
┏━━━━━━━━━━━━━━━━━━━━━━━━━━━━━━━━━━━━━━┳━━━━━━━━━━━━━━━━━━━━━━━━━━━━━┳━━━━━━━━━━━━━━━━━┓
┃ Layer (type)                         ┃ Output Shape                ┃         Param # ┃
┡━━━━━━━━━━━━━━━━━━━━━━━━━━━━━━━━━━━━━━╇━━━━━━━━━━━━━━━━━━━━━━━━━━━━━╇━━━━━━━━━━━━━━━━━┩
│ rescaling_1 (Rescaling)              │ (None, 256, 256, 3)         │               0 │
├──────────────────────────────────────┼─────────────────────────────┼─────────────────┤
│ conv2d (Conv2D)                      │ (None, 256, 256, 16)        │             448 │
├──────────────────────────────────────┼─────────────────────────────┼─────────────────┤
│ max_pooling2d (MaxPooling2D)         │ (None, 128, 128, 16)        │               0 │
├──────────────────────────────────────┼─────────────────────────────┼─────────────────┤
│ conv2d_1 (Conv2D)                    │ (None, 128, 128, 32)        │           4,640 │
├──────────────────────────────────────┼─────────────────────────────┼─────────────────┤
│ max_pooling2d_1 (MaxPooling2D)       │ (None, 64, 64, 32)          │               0 │
├──────────────────────────────────────┼─────────────────────────────┼─────────────────┤
│ conv2d_2 (Conv2D)                    │ (None, 64, 64, 64)          │          18,496 │
├──────────────────────────────────────┼─────────────────────────────┼─────────────────┤
│ max_pooling2d_2 (MaxPooling2D)       │ (None, 32, 32, 64)          │               0 │
├──────────────────────────────────────┼─────────────────────────────┼─────────────────┤
│ flatten (Flatten)                    │ (None, 65536)               │               0 │
├──────────────────────────────────────┼─────────────────────────────┼─────────────────┤
│ dense (Dense)                        │ (None, 256)                 │      16,777,472 │
├──────────────────────────────────────┼─────────────────────────────┼─────────────────┤
│ dense_1 (Dense)                      │ (None, 61)                  │          15,677 │
└──────────────────────────────────────┴─────────────────────────────┴─────────────────┘
 Total params: 16,816,733 (64.15 MB)
 Trainable params: 16,816,733 (64.15 MB)
 Non-trainable params: 0 (0.00 B)
tf.keras.utils.plot_model(model, show_shapes=True)
No description has been provided for this image
%%time

callback = tf.keras.callbacks.EarlyStopping(
    monitor='val_loss',
    patience=3,
    restore_best_weights=True
…
12683000/12683000 ━━━━━━━━━━━━━━━━━━━━ 0s 0us/step
tf.keras.utils.plot_model(MobileNetV3Large_model, show_shapes=True)
dot: graph is too large for cairo-renderer bitmaps. Scaling by 0.484798 to fit

No description has been provided for this image
MobileNetV3Large_model.summary()
Model: "MobileNetV3Large"
┏━━━━━━━━━━━━━━━━━━━━━━━━━━━┳━━━━━━━━━━━━━━━━━━━━━━━━┳━━━━━━━━━━━━━━━━┳━━━━━━━━━━━━━━━━━━━━━━━━┓
┃ Layer (type)              ┃ Output Shape           ┃        Param # ┃ Connected to           ┃
┡━━━━━━━━━━━━━━━━━━━━━━━━━━━╇━━━━━━━━━━━━━━━━━━━━━━━━╇━━━━━━━━━━━━━━━━╇━━━━━━━━━━━━━━━━━━━━━━━━┩
│ input_layer_3             │ (None, 256, 256, 3)    │              0 │ -                      │
│ (InputLayer)              │                        │                │                        │
├───────────────────────────┼────────────────────────┼────────────────┼────────────────────────┤
│ rescaling_3 (Rescaling)   │ (None, 256, 256, 3)    │              0 │ input_layer_3[0][0]    │
├───────────────────────────┼────────────────────────┼────────────────┼────────────────────────┤
│ conv (Conv2D)             │ (None, 128, 128, 16)   │            432 │ rescaling_3[0][0]      │
├───────────────────────────┼────────────────────────┼────────────────┼────────────────────────┤
│ conv_bn                   │ (None, 128, 128, 16)   │             64 │ conv[0][0]             │
│ (BatchNormalization)      │                        │                │                        │
├───────────────────────────┼────────────────────────┼────────────────┼────────────────────────┤
│ activation (Activation)   │ (None, 128, 128, 16)   │              0 │ conv_bn[0][0]          │
├───────────────────────────┼────────────────────────┼────────────────┼────────────────────────┤
│ expanded_conv_depthwise   │ (None, 128, 128, 16)   │            144 │ activation[0][0]       │
│ (DepthwiseConv2D)         │                        │                │                        │
├───────────────────────────┼────────────────────────┼────────────────┼────────────────────────┤
│ expanded_conv_depthwise_… │ (None, 128, 128, 16)   │             64 │ expanded_conv_depthwi… │
│ (BatchNormalization)      │                        │                │                        │
├───────────────────────────┼────────────────────────┼────────────────┼────────────────────────┤
│ re_lu (ReLU)              │ (None, 128, 128, 16)   │              0 │ expanded_conv_depthwi… │
├───────────────────────────┼────────────────────────┼────────────────┼────────────────────────┤
│ expanded_conv_project     │ (None, 128, 128, 16)   │            256 │ re_lu[0][0]            │
│ (Conv2D)                  │                        │                │                        │
├───────────────────────────┼────────────────────────┼────────────────┼────────────────────────┤
│ expanded_conv_project_bn  │ (None, 128, 128, 16)   │             64 │ expanded_conv_project… │
│ (BatchNormalization)      │                        │                │                        │
├───────────────────────────┼────────────────────────┼────────────────┼────────────────────────┤
│ expanded_conv_add (Add)   │ (None, 128, 128, 16)   │              0 │ activation[0][0],      │
│                           │                        │                │ expanded_conv_project… │
├───────────────────────────┼────────────────────────┼────────────────┼────────────────────────┤
│ expanded_conv_1_expand    │ (None, 128, 128, 64)   │          1,024 │ expanded_conv_add[0][… │
│ (Conv2D)                  │                        │                │                        │
├───────────────────────────┼────────────────────────┼────────────────┼────────────────────────┤
│ expanded_conv_1_expand_bn │ (None, 128, 128, 64)   │            256 │ expanded_conv_1_expan… │
│ (BatchNormalization)      │                        │                │                        │
├───────────────────────────┼────────────────────────┼────────────────┼────────────────────────┤
│ re_lu_1 (ReLU)            │ (None, 128, 128, 64)   │              0 │ expanded_conv_1_expan… │
├───────────────────────────┼────────────────────────┼────────────────┼────────────────────────┤
│ expanded_conv_1_depthwis… │ (None, 129, 129, 64)   │              0 │ re_lu_1[0][0]          │
│ (ZeroPadding2D)           │                        │                │                        │
├───────────────────────────┼────────────────────────┼────────────────┼────────────────────────┤
│ expanded_conv_1_depthwise │ (None, 64, 64, 64)     │            576 │ expanded_conv_1_depth… │
│ (DepthwiseConv2D)         │                        │                │                        │
├───────────────────────────┼────────────────────────┼────────────────┼────────────────────────┤
│ expanded_conv_1_depthwis… │ (None, 64, 64, 64)     │            256 │ expanded_conv_1_depth… │
│ (BatchNormalization)      │                        │                │                        │
├───────────────────────────┼────────────────────────┼────────────────┼────────────────────────┤
│ re_lu_2 (ReLU)            │ (None, 64, 64, 64)     │              0 │ expanded_conv_1_depth… │
├───────────────────────────┼────────────────────────┼────────────────┼────────────────────────┤
│ expanded_conv_1_project   │ (None, 64, 64, 24)     │          1,536 │ re_lu_2[0][0]          │
│ (Conv2D)                  │                        │                │                        │
├───────────────────────────┼────────────────────────┼────────────────┼────────────────────────┤
│ expanded_conv_1_project_… │ (None, 64, 64, 24)     │             96 │ expanded_conv_1_proje… │
│ (BatchNormalization)      │                        │                │                        │
├───────────────────────────┼────────────────────────┼────────────────┼────────────────────────┤
│ expanded_conv_2_expand    │ (None, 64, 64, 72)     │          1,728 │ expanded_conv_1_proje… │
│ (Conv2D)                  │                        │                │                        │
├───────────────────────────┼────────────────────────┼────────────────┼────────────────────────┤
│ expanded_conv_2_expand_bn │ (None, 64, 64, 72)     │            288 │ expanded_conv_2_expan… │
│ (BatchNormalization)      │                        │                │                        │
├───────────────────────────┼────────────────────────┼────────────────┼────────────────────────┤
│ re_lu_3 (ReLU)            │ (None, 64, 64, 72)     │              0 │ expanded_conv_2_expan… │
├───────────────────────────┼────────────────────────┼────────────────┼────────────────────────┤
│ expanded_conv_2_depthwise │ (None, 64, 64, 72)     │            648 │ re_lu_3[0][0]          │
│ (DepthwiseConv2D)         │                        │                │                        │
├───────────────────────────┼────────────────────────┼────────────────┼────────────────────────┤
│ expanded_conv_2_depthwis… │ (None, 64, 64, 72)     │            288 │ expanded_conv_2_depth… │
│ (BatchNormalization)      │                        │                │                        │
├───────────────────────────┼────────────────────────┼────────────────┼────────────────────────┤
│ re_lu_4 (ReLU)            │ (None, 64, 64, 72)     │              0 │ expanded_conv_2_depth… │
├───────────────────────────┼────────────────────────┼────────────────┼────────────────────────┤
│ expanded_conv_2_project   │ (None, 64, 64, 24)     │          1,728 │ re_lu_4[0][0]          │
│ (Conv2D)                  │                        │                │                        │
├───────────────────────────┼────────────────────────┼────────────────┼────────────────────────┤
│ expanded_conv_2_project_… │ (None, 64, 64, 24)     │             96 │ expanded_conv_2_proje… │
│ (BatchNormalization)      │                        │                │                        │
├───────────────────────────┼────────────────────────┼────────────────┼────────────────────────┤
│ expanded_conv_2_add (Add) │ (None, 64, 64, 24)     │              0 │ expanded_conv_1_proje… │
│                           │                        │                │ expanded_conv_2_proje… │
├───────────────────────────┼────────────────────────┼────────────────┼────────────────────────┤
│ expanded_conv_3_expand    │ (None, 64, 64, 72)     │          1,728 │ expanded_conv_2_add[0… │
│ (Conv2D)                  │                        │                │                        │
├───────────────────────────┼────────────────────────┼────────────────┼────────────────────────┤
│ expanded_conv_3_expand_bn │ (None, 64, 64, 72)     │            288 │ expanded_conv_3_expan… │
│ (BatchNormalization)      │                        │                │                        │
├───────────────────────────┼────────────────────────┼────────────────┼────────────────────────┤
│ re_lu_5 (ReLU)            │ (None, 64, 64, 72)     │              0 │ expanded_conv_3_expan… │
├───────────────────────────┼────────────────────────┼────────────────┼────────────────────────┤
│ expanded_conv_3_depthwis… │ (None, 67, 67, 72)     │              0 │ re_lu_5[0][0]          │
│ (ZeroPadding2D)           │                        │                │                        │
├───────────────────────────┼────────────────────────┼────────────────┼────────────────────────┤
│ expanded_conv_3_depthwise │ (None, 32, 32, 72)     │          1,800 │ expanded_conv_3_depth… │
│ (DepthwiseConv2D)         │                        │                │                        │
├───────────────────────────┼────────────────────────┼────────────────┼────────────────────────┤
│ expanded_conv_3_depthwis… │ (None, 32, 32, 72)     │            288 │ expanded_conv_3_depth… │
│ (BatchNormalization)      │                        │                │                        │
├───────────────────────────┼────────────────────────┼────────────────┼────────────────────────┤
│ re_lu_6 (ReLU)            │ (None, 32, 32, 72)     │              0 │ expanded_conv_3_depth… │
├───────────────────────────┼────────────────────────┼────────────────┼────────────────────────┤
│ expanded_conv_3_squeeze_… │ (None, 1, 1, 72)       │              0 │ re_lu_6[0][0]          │
│ (GlobalAveragePooling2D)  │                        │                │                        │
├───────────────────────────┼────────────────────────┼────────────────┼────────────────────────┤
│ expanded_conv_3_squeeze_… │ (None, 1, 1, 24)       │          1,752 │ expanded_conv_3_squee… │
│ (Conv2D)                  │                        │                │                        │
├───────────────────────────┼────────────────────────┼────────────────┼────────────────────────┤
│ expanded_conv_3_squeeze_… │ (None, 1, 1, 24)       │              0 │ expanded_conv_3_squee… │
│ (ReLU)                    │                        │                │                        │
├───────────────────────────┼────────────────────────┼────────────────┼────────────────────────┤
│ expanded_conv_3_squeeze_… │ (None, 1, 1, 72)       │          1,800 │ expanded_conv_3_squee… │
│ (Conv2D)                  │                        │                │                        │
├───────────────────────────┼────────────────────────┼────────────────┼────────────────────────┤
│ add (Add)                 │ (None, 1, 1, 72)       │              0 │ expanded_conv_3_squee… │
├───────────────────────────┼────────────────────────┼────────────────┼────────────────────────┤
│ re_lu_7 (ReLU)            │ (None, 1, 1, 72)       │              0 │ add[0][0]              │
├───────────────────────────┼────────────────────────┼────────────────┼────────────────────────┤
│ multiply (Multiply)       │ (None, 1, 1, 72)       │              0 │ re_lu_7[0][0]          │
├───────────────────────────┼────────────────────────┼────────────────┼────────────────────────┤
│ expanded_conv_3_squeeze_… │ (None, 32, 32, 72)     │              0 │ re_lu_6[0][0],         │
│ (Multiply)                │                        │                │ multiply[0][0]         │
├───────────────────────────┼────────────────────────┼────────────────┼────────────────────────┤
│ expanded_conv_3_project   │ (None, 32, 32, 40)     │          2,880 │ expanded_conv_3_squee… │
│ (Conv2D)                  │                        │                │                        │
├───────────────────────────┼────────────────────────┼────────────────┼────────────────────────┤
│ expanded_conv_3_project_… │ (None, 32, 32, 40)     │            160 │ expanded_conv_3_proje… │
│ (BatchNormalization)      │                        │                │                        │
├───────────────────────────┼────────────────────────┼────────────────┼────────────────────────┤
│ expanded_conv_4_expand    │ (None, 32, 32, 120)    │          4,800 │ expanded_conv_3_proje… │
│ (Conv2D)                  │                        │                │                        │
├───────────────────────────┼────────────────────────┼────────────────┼────────────────────────┤
│ expanded_conv_4_expand_bn │ (None, 32, 32, 120)    │            480 │ expanded_conv_4_expan… │
│ (BatchNormalization)      │                        │                │                        │
├───────────────────────────┼────────────────────────┼────────────────┼────────────────────────┤
│ re_lu_8 (ReLU)            │ (None, 32, 32, 120)    │              0 │ expanded_conv_4_expan… │
├───────────────────────────┼────────────────────────┼────────────────┼────────────────────────┤
│ expanded_conv_4_depthwise │ (None, 32, 32, 120)    │          3,000 │ re_lu_8[0][0]          │
│ (DepthwiseConv2D)         │                        │                │                        │
├───────────────────────────┼────────────────────────┼────────────────┼────────────────────────┤
│ expanded_conv_4_depthwis… │ (None, 32, 32, 120)    │            480 │ expanded_conv_4_depth… │
│ (BatchNormalization)      │                        │                │                        │
├───────────────────────────┼────────────────────────┼────────────────┼────────────────────────┤
│ re_lu_9 (ReLU)            │ (None, 32, 32, 120)    │              0 │ expanded_conv_4_depth… │
├───────────────────────────┼────────────────────────┼────────────────┼────────────────────────┤
│ expanded_conv_4_squeeze_… │ (None, 1, 1, 120)      │              0 │ re_lu_9[0][0]          │
│ (GlobalAveragePooling2D)  │                        │                │                        │
├───────────────────────────┼────────────────────────┼────────────────┼────────────────────────┤
│ expanded_conv_4_squeeze_… │ (None, 1, 1, 32)       │          3,872 │ expanded_conv_4_squee… │
│ (Conv2D)                  │                        │                │                        │
├───────────────────────────┼────────────────────────┼────────────────┼────────────────────────┤
│ expanded_conv_4_squeeze_… │ (None, 1, 1, 32)       │              0 │ expanded_conv_4_squee… │
│ (ReLU)                    │                        │                │                        │
├───────────────────────────┼────────────────────────┼────────────────┼────────────────────────┤
│ expanded_conv_4_squeeze_… │ (None, 1, 1, 120)      │          3,960 │ expanded_conv_4_squee… │
│ (Conv2D)                  │                        │                │                        │
├───────────────────────────┼────────────────────────┼────────────────┼────────────────────────┤
│ add_1 (Add)               │ (None, 1, 1, 120)      │              0 │ expanded_conv_4_squee… │
├───────────────────────────┼────────────────────────┼────────────────┼────────────────────────┤
│ re_lu_10 (ReLU)           │ (None, 1, 1, 120)      │              0 │ add_1[0][0]            │
├───────────────────────────┼────────────────────────┼────────────────┼────────────────────────┤
│ multiply_1 (Multiply)     │ (None, 1, 1, 120)      │              0 │ re_lu_10[0][0]         │
├───────────────────────────┼────────────────────────┼────────────────┼────────────────────────┤
│ expanded_conv_4_squeeze_… │ (None, 32, 32, 120)    │              0 │ re_lu_9[0][0],         │
│ (Multiply)                │                        │                │ multiply_1[0][0]       │
├───────────────────────────┼────────────────────────┼────────────────┼────────────────────────┤
│ expanded_conv_4_project   │ (None, 32, 32, 40)     │          4,800 │ expanded_conv_4_squee… │
│ (Conv2D)                  │                        │                │                        │
├───────────────────────────┼────────────────────────┼────────────────┼────────────────────────┤
│ expanded_conv_4_project_… │ (None, 32, 32, 40)     │            160 │ expanded_conv_4_proje… │
│ (BatchNormalization)      │                        │                │                        │
├───────────────────────────┼────────────────────────┼────────────────┼────────────────────────┤
│ expanded_conv_4_add (Add) │ (None, 32, 32, 40)     │              0 │ expanded_conv_3_proje… │
│                           │                        │                │ expanded_conv_4_proje… │
├───────────────────────────┼────────────────────────┼────────────────┼────────────────────────┤
│ expanded_conv_5_expand    │ (None, 32, 32, 120)    │          4,800 │ expanded_conv_4_add[0… │
│ (Conv2D)                  │                        │                │                        │
├───────────────────────────┼────────────────────────┼────────────────┼────────────────────────┤
│ expanded_conv_5_expand_bn │ (None, 32, 32, 120)    │            480 │ expanded_conv_5_expan… │
│ (BatchNormalization)      │                        │                │                        │
├───────────────────────────┼────────────────────────┼────────────────┼────────────────────────┤
│ re_lu_11 (ReLU)           │ (None, 32, 32, 120)    │              0 │ expanded_conv_5_expan… │
├───────────────────────────┼────────────────────────┼────────────────┼────────────────────────┤
│ expanded_conv_5_depthwise │ (None, 32, 32, 120)    │          3,000 │ re_lu_11[0][0]         │
│ (DepthwiseConv2D)         │                        │                │                        │
├───────────────────────────┼────────────────────────┼────────────────┼────────────────────────┤
│ expanded_conv_5_depthwis… │ (None, 32, 32, 120)    │            480 │ expanded_conv_5_depth… │
│ (BatchNormalization)      │                        │                │                        │
├───────────────────────────┼────────────────────────┼────────────────┼────────────────────────┤
│ re_lu_12 (ReLU)           │ (None, 32, 32, 120)    │              0 │ expanded_conv_5_depth… │
├───────────────────────────┼────────────────────────┼────────────────┼────────────────────────┤
│ expanded_conv_5_squeeze_… │ (None, 1, 1, 120)      │              0 │ re_lu_12[0][0]         │
│ (GlobalAveragePooling2D)  │                        │                │                        │
├───────────────────────────┼────────────────────────┼────────────────┼────────────────────────┤
│ expanded_conv_5_squeeze_… │ (None, 1, 1, 32)       │          3,872 │ expanded_conv_5_squee… │
│ (Conv2D)                  │                        │                │                        │
├───────────────────────────┼────────────────────────┼────────────────┼────────────────────────┤
│ expanded_conv_5_squeeze_… │ (None, 1, 1, 32)       │              0 │ expanded_conv_5_squee… │
│ (ReLU)                    │                        │                │                        │
├───────────────────────────┼────────────────────────┼────────────────┼────────────────────────┤
│ expanded_conv_5_squeeze_… │ (None, 1, 1, 120)      │          3,960 │ expanded_conv_5_squee… │
│ (Conv2D)                  │                        │                │                        │
├───────────────────────────┼────────────────────────┼────────────────┼────────────────────────┤
│ add_2 (Add)               │ (None, 1, 1, 120)      │              0 │ expanded_conv_5_squee… │
├───────────────────────────┼────────────────────────┼────────────────┼────────────────────────┤
│ re_lu_13 (ReLU)           │ (None, 1, 1, 120)      │              0 │ add_2[0][0]            │
├───────────────────────────┼────────────────────────┼────────────────┼────────────────────────┤
│ multiply_2 (Multiply)     │ (None, 1, 1, 120)      │              0 │ re_lu_13[0][0]         │
├───────────────────────────┼────────────────────────┼────────────────┼────────────────────────┤
│ expanded_conv_5_squeeze_… │ (None, 32, 32, 120)    │              0 │ re_lu_12[0][0],        │
│ (Multiply)                │                        │                │ multiply_2[0][0]       │
├───────────────────────────┼────────────────────────┼────────────────┼────────────────────────┤
│ expanded_conv_5_project   │ (None, 32, 32, 40)     │          4,800 │ expanded_conv_5_squee… │
│ (Conv2D)                  │                        │                │                        │
├───────────────────────────┼────────────────────────┼────────────────┼────────────────────────┤
│ expanded_conv_5_project_… │ (None, 32, 32, 40)     │            160 │ expanded_conv_5_proje… │
│ (BatchNormalization)      │                        │                │                        │
├───────────────────────────┼────────────────────────┼────────────────┼────────────────────────┤
│ expanded_conv_5_add (Add) │ (None, 32, 32, 40)     │              0 │ expanded_conv_4_add[0… │
│                           │                        │                │ expanded_conv_5_proje… │
├───────────────────────────┼────────────────────────┼────────────────┼────────────────────────┤
│ expanded_conv_6_expand    │ (None, 32, 32, 240)    │          9,600 │ expanded_conv_5_add[0… │
│ (Conv2D)                  │                        │                │                        │
├───────────────────────────┼────────────────────────┼────────────────┼────────────────────────┤
│ expanded_conv_6_expand_bn │ (None, 32, 32, 240)    │            960 │ expanded_conv_6_expan… │
│ (BatchNormalization)      │                        │                │                        │
├───────────────────────────┼────────────────────────┼────────────────┼────────────────────────┤
│ activation_1 (Activation) │ (None, 32, 32, 240)    │              0 │ expanded_conv_6_expan… │
├───────────────────────────┼────────────────────────┼────────────────┼────────────────────────┤
│ expanded_conv_6_depthwis… │ (None, 33, 33, 240)    │              0 │ activation_1[0][0]     │
│ (ZeroPadding2D)           │                        │                │                        │
├───────────────────────────┼────────────────────────┼────────────────┼────────────────────────┤
│ expanded_conv_6_depthwise │ (None, 16, 16, 240)    │          2,160 │ expanded_conv_6_depth… │
│ (DepthwiseConv2D)         │                        │                │                        │
├───────────────────────────┼────────────────────────┼────────────────┼────────────────────────┤
│ expanded_conv_6_depthwis… │ (None, 16, 16, 240)    │            960 │ expanded_conv_6_depth… │
│ (BatchNormalization)      │                        │                │                        │
├───────────────────────────┼────────────────────────┼────────────────┼────────────────────────┤
│ activation_2 (Activation) │ (None, 16, 16, 240)    │              0 │ expanded_conv_6_depth… │
├───────────────────────────┼────────────────────────┼────────────────┼────────────────────────┤
│ expanded_conv_6_project   │ (None, 16, 16, 80)     │         19,200 │ activation_2[0][0]     │
│ (Conv2D)                  │                        │                │                        │
├───────────────────────────┼────────────────────────┼────────────────┼────────────────────────┤
│ expanded_conv_6_project_… │ (None, 16, 16, 80)     │            320 │ expanded_conv_6_proje… │
│ (BatchNormalization)      │                        │                │                        │
├───────────────────────────┼────────────────────────┼────────────────┼────────────────────────┤
│ expanded_conv_7_expand    │ (None, 16, 16, 200)    │         16,000 │ expanded_conv_6_proje… │
│ (Conv2D)                  │                        │                │                        │
├───────────────────────────┼────────────────────────┼────────────────┼────────────────────────┤
│ expanded_conv_7_expand_bn │ (None, 16, 16, 200)    │            800 │ expanded_conv_7_expan… │
│ (BatchNormalization)      │                        │                │                        │
├───────────────────────────┼────────────────────────┼────────────────┼────────────────────────┤
│ activation_3 (Activation) │ (None, 16, 16, 200)    │              0 │ expanded_conv_7_expan… │
├───────────────────────────┼────────────────────────┼────────────────┼────────────────────────┤
│ expanded_conv_7_depthwise │ (None, 16, 16, 200)    │          1,800 │ activation_3[0][0]     │
│ (DepthwiseConv2D)         │                        │                │                        │
├───────────────────────────┼────────────────────────┼────────────────┼────────────────────────┤
│ expanded_conv_7_depthwis… │ (None, 16, 16, 200)    │            800 │ expanded_conv_7_depth… │
│ (BatchNormalization)      │                        │                │                        │
├───────────────────────────┼────────────────────────┼────────────────┼────────────────────────┤
│ activation_4 (Activation) │ (None, 16, 16, 200)    │              0 │ expanded_conv_7_depth… │
├───────────────────────────┼────────────────────────┼────────────────┼────────────────────────┤
│ expanded_conv_7_project   │ (None, 16, 16, 80)     │         16,000 │ activation_4[0][0]     │
│ (Conv2D)                  │                        │                │                        │
├───────────────────────────┼────────────────────────┼────────────────┼────────────────────────┤
│ expanded_conv_7_project_… │ (None, 16, 16, 80)     │            320 │ expanded_conv_7_proje… │
│ (BatchNormalization)      │                        │                │                        │
├───────────────────────────┼────────────────────────┼────────────────┼────────────────────────┤
│ expanded_conv_7_add (Add) │ (None, 16, 16, 80)     │              0 │ expanded_conv_6_proje… │
│                           │                        │                │ expanded_conv_7_proje… │
├───────────────────────────┼────────────────────────┼────────────────┼────────────────────────┤
│ expanded_conv_8_expand    │ (None, 16, 16, 184)    │         14,720 │ expanded_conv_7_add[0… │
│ (Conv2D)                  │                        │                │                        │
├───────────────────────────┼────────────────────────┼────────────────┼────────────────────────┤
│ expanded_conv_8_expand_bn │ (None, 16, 16, 184)    │            736 │ expanded_conv_8_expan… │
│ (BatchNormalization)      │                        │                │                        │
├───────────────────────────┼────────────────────────┼────────────────┼────────────────────────┤
│ activation_5 (Activation) │ (None, 16, 16, 184)    │              0 │ expanded_conv_8_expan… │
├───────────────────────────┼────────────────────────┼────────────────┼────────────────────────┤
│ expanded_conv_8_depthwise │ (None, 16, 16, 184)    │          1,656 │ activation_5[0][0]     │
│ (DepthwiseConv2D)         │                        │                │                        │
├───────────────────────────┼────────────────────────┼────────────────┼────────────────────────┤
│ expanded_conv_8_depthwis… │ (None, 16, 16, 184)    │            736 │ expanded_conv_8_depth… │
│ (BatchNormalization)      │                        │                │                        │
├───────────────────────────┼────────────────────────┼────────────────┼────────────────────────┤
│ activation_6 (Activation) │ (None, 16, 16, 184)    │              0 │ expanded_conv_8_depth… │
├───────────────────────────┼────────────────────────┼────────────────┼────────────────────────┤
│ expanded_conv_8_project   │ (None, 16, 16, 80)     │         14,720 │ activation_6[0][0]     │
│ (Conv2D)                  │                        │                │                        │
├───────────────────────────┼────────────────────────┼────────────────┼────────────────────────┤
│ expanded_conv_8_project_… │ (None, 16, 16, 80)     │            320 │ expanded_conv_8_proje… │
│ (BatchNormalization)      │                        │                │                        │
├───────────────────────────┼────────────────────────┼────────────────┼────────────────────────┤
│ expanded_conv_8_add (Add) │ (None, 16, 16, 80)     │              0 │ expanded_conv_7_add[0… │
│                           │                        │                │ expanded_conv_8_proje… │
├───────────────────────────┼────────────────────────┼────────────────┼────────────────────────┤
│ expanded_conv_9_expand    │ (None, 16, 16, 184)    │         14,720 │ expanded_conv_8_add[0… │
│ (Conv2D)                  │                        │                │                        │
├───────────────────────────┼────────────────────────┼────────────────┼────────────────────────┤
│ expanded_conv_9_expand_bn │ (None, 16, 16, 184)    │            736 │ expanded_conv_9_expan… │
│ (BatchNormalization)      │                        │                │                        │
├───────────────────────────┼────────────────────────┼────────────────┼────────────────────────┤
│ activation_7 (Activation) │ (None, 16, 16, 184)    │              0 │ expanded_conv_9_expan… │
├───────────────────────────┼────────────────────────┼────────────────┼────────────────────────┤
│ expanded_conv_9_depthwise │ (None, 16, 16, 184)    │          1,656 │ activation_7[0][0]     │
│ (DepthwiseConv2D)         │                        │                │                        │
├───────────────────────────┼────────────────────────┼────────────────┼────────────────────────┤
│ expanded_conv_9_depthwis… │ (None, 16, 16, 184)    │            736 │ expanded_conv_9_depth… │
│ (BatchNormalization)      │                        │                │                        │
├───────────────────────────┼────────────────────────┼────────────────┼────────────────────────┤
│ activation_8 (Activation) │ (None, 16, 16, 184)    │              0 │ expanded_conv_9_depth… │
├───────────────────────────┼────────────────────────┼────────────────┼────────────────────────┤
│ expanded_conv_9_project   │ (None, 16, 16, 80)     │         14,720 │ activation_8[0][0]     │
│ (Conv2D)                  │                        │                │                        │
├───────────────────────────┼────────────────────────┼────────────────┼────────────────────────┤
│ expanded_conv_9_project_… │ (None, 16, 16, 80)     │            320 │ expanded_conv_9_proje… │
│ (BatchNormalization)      │                        │                │                        │
├───────────────────────────┼────────────────────────┼────────────────┼────────────────────────┤
│ expanded_conv_9_add (Add) │ (None, 16, 16, 80)     │              0 │ expanded_conv_8_add[0… │
│                           │                        │                │ expanded_conv_9_proje… │
├───────────────────────────┼────────────────────────┼────────────────┼────────────────────────┤
│ expanded_conv_10_expand   │ (None, 16, 16, 480)    │         38,400 │ expanded_conv_9_add[0… │
│ (Conv2D)                  │                        │                │                        │
├───────────────────────────┼────────────────────────┼────────────────┼────────────────────────┤
│ expanded_conv_10_expand_… │ (None, 16, 16, 480)    │          1,920 │ expanded_conv_10_expa… │
│ (BatchNormalization)      │                        │                │                        │
├───────────────────────────┼────────────────────────┼────────────────┼────────────────────────┤
│ activation_9 (Activation) │ (None, 16, 16, 480)    │              0 │ expanded_conv_10_expa… │
├───────────────────────────┼────────────────────────┼────────────────┼────────────────────────┤
│ expanded_conv_10_depthwi… │ (None, 16, 16, 480)    │          4,320 │ activation_9[0][0]     │
│ (DepthwiseConv2D)         │                        │                │                        │
├───────────────────────────┼────────────────────────┼────────────────┼────────────────────────┤
│ expanded_conv_10_depthwi… │ (None, 16, 16, 480)    │          1,920 │ expanded_conv_10_dept… │
│ (BatchNormalization)      │                        │                │                        │
├───────────────────────────┼────────────────────────┼────────────────┼────────────────────────┤
│ activation_10             │ (None, 16, 16, 480)    │              0 │ expanded_conv_10_dept… │
│ (Activation)              │                        │                │                        │
├───────────────────────────┼────────────────────────┼────────────────┼────────────────────────┤
│ expanded_conv_10_squeeze… │ (None, 1, 1, 480)      │              0 │ activation_10[0][0]    │
│ (GlobalAveragePooling2D)  │                        │                │                        │
├───────────────────────────┼────────────────────────┼────────────────┼────────────────────────┤
│ expanded_conv_10_squeeze… │ (None, 1, 1, 120)      │         57,720 │ expanded_conv_10_sque… │
│ (Conv2D)                  │                        │                │                        │
├───────────────────────────┼────────────────────────┼────────────────┼────────────────────────┤
│ expanded_conv_10_squeeze… │ (None, 1, 1, 120)      │              0 │ expanded_conv_10_sque… │
│ (ReLU)                    │                        │                │                        │
├───────────────────────────┼────────────────────────┼────────────────┼────────────────────────┤
│ expanded_conv_10_squeeze… │ (None, 1, 1, 480)      │         58,080 │ expanded_conv_10_sque… │
│ (Conv2D)                  │                        │                │                        │
├───────────────────────────┼────────────────────────┼────────────────┼────────────────────────┤
│ add_3 (Add)               │ (None, 1, 1, 480)      │              0 │ expanded_conv_10_sque… │
├───────────────────────────┼────────────────────────┼────────────────┼────────────────────────┤
│ re_lu_14 (ReLU)           │ (None, 1, 1, 480)      │              0 │ add_3[0][0]            │
├───────────────────────────┼────────────────────────┼────────────────┼────────────────────────┤
│ multiply_3 (Multiply)     │ (None, 1, 1, 480)      │              0 │ re_lu_14[0][0]         │
├───────────────────────────┼────────────────────────┼────────────────┼────────────────────────┤
│ expanded_conv_10_squeeze… │ (None, 16, 16, 480)    │              0 │ activation_10[0][0],   │
│ (Multiply)                │                        │                │ multiply_3[0][0]       │
├───────────────────────────┼────────────────────────┼────────────────┼────────────────────────┤
│ expanded_conv_10_project  │ (None, 16, 16, 112)    │         53,760 │ expanded_conv_10_sque… │
│ (Conv2D)                  │                        │                │                        │
├───────────────────────────┼────────────────────────┼────────────────┼────────────────────────┤
│ expanded_conv_10_project… │ (None, 16, 16, 112)    │            448 │ expanded_conv_10_proj… │
│ (BatchNormalization)      │                        │                │                        │
├───────────────────────────┼────────────────────────┼────────────────┼────────────────────────┤
│ expanded_conv_11_expand   │ (None, 16, 16, 672)    │         75,264 │ expanded_conv_10_proj… │
│ (Conv2D)                  │                        │                │                        │
├───────────────────────────┼────────────────────────┼────────────────┼────────────────────────┤
│ expanded_conv_11_expand_… │ (None, 16, 16, 672)    │          2,688 │ expanded_conv_11_expa… │
│ (BatchNormalization)      │                        │                │                        │
├───────────────────────────┼────────────────────────┼────────────────┼────────────────────────┤
│ activation_11             │ (None, 16, 16, 672)    │              0 │ expanded_conv_11_expa… │
│ (Activation)              │                        │                │                        │
├───────────────────────────┼────────────────────────┼────────────────┼────────────────────────┤
│ expanded_conv_11_depthwi… │ (None, 16, 16, 672)    │          6,048 │ activation_11[0][0]    │
│ (DepthwiseConv2D)         │                        │                │                        │
├───────────────────────────┼────────────────────────┼────────────────┼────────────────────────┤
│ expanded_conv_11_depthwi… │ (None, 16, 16, 672)    │          2,688 │ expanded_conv_11_dept… │
│ (BatchNormalization)      │                        │                │                        │
├───────────────────────────┼────────────────────────┼────────────────┼────────────────────────┤
│ activation_12             │ (None, 16, 16, 672)    │              0 │ expanded_conv_11_dept… │
│ (Activation)              │                        │                │                        │
├───────────────────────────┼────────────────────────┼────────────────┼────────────────────────┤
│ expanded_conv_11_squeeze… │ (None, 1, 1, 672)      │              0 │ activation_12[0][0]    │
│ (GlobalAveragePooling2D)  │                        │                │                        │
├───────────────────────────┼────────────────────────┼────────────────┼────────────────────────┤
│ expanded_conv_11_squeeze… │ (None, 1, 1, 168)      │        113,064 │ expanded_conv_11_sque… │
│ (Conv2D)                  │                        │                │                        │
├───────────────────────────┼────────────────────────┼────────────────┼────────────────────────┤
│ expanded_conv_11_squeeze… │ (None, 1, 1, 168)      │              0 │ expanded_conv_11_sque… │
│ (ReLU)                    │                        │                │                        │
├───────────────────────────┼────────────────────────┼────────────────┼────────────────────────┤
│ expanded_conv_11_squeeze… │ (None, 1, 1, 672)      │        113,568 │ expanded_conv_11_sque… │
│ (Conv2D)                  │                        │                │                        │
├───────────────────────────┼────────────────────────┼────────────────┼────────────────────────┤
│ add_4 (Add)               │ (None, 1, 1, 672)      │              0 │ expanded_conv_11_sque… │
├───────────────────────────┼────────────────────────┼────────────────┼────────────────────────┤
│ re_lu_15 (ReLU)           │ (None, 1, 1, 672)      │              0 │ add_4[0][0]            │
├───────────────────────────┼────────────────────────┼────────────────┼────────────────────────┤
│ multiply_4 (Multiply)     │ (None, 1, 1, 672)      │              0 │ re_lu_15[0][0]         │
├───────────────────────────┼────────────────────────┼────────────────┼────────────────────────┤
│ expanded_conv_11_squeeze… │ (None, 16, 16, 672)    │              0 │ activation_12[0][0],   │
│ (Multiply)                │                        │                │ multiply_4[0][0]       │
├───────────────────────────┼────────────────────────┼────────────────┼────────────────────────┤
│ expanded_conv_11_project  │ (None, 16, 16, 112)    │         75,264 │ expanded_conv_11_sque… │
│ (Conv2D)                  │                        │                │                        │
├───────────────────────────┼────────────────────────┼────────────────┼────────────────────────┤
│ expanded_conv_11_project… │ (None, 16, 16, 112)    │            448 │ expanded_conv_11_proj… │
│ (BatchNormalization)      │                        │                │                        │
├───────────────────────────┼────────────────────────┼────────────────┼────────────────────────┤
│ expanded_conv_11_add      │ (None, 16, 16, 112)    │              0 │ expanded_conv_10_proj… │
│ (Add)                     │                        │                │ expanded_conv_11_proj… │
├───────────────────────────┼────────────────────────┼────────────────┼────────────────────────┤
│ expanded_conv_12_expand   │ (None, 16, 16, 672)    │         75,264 │ expanded_conv_11_add[… │
│ (Conv2D)                  │                        │                │                        │
├───────────────────────────┼────────────────────────┼────────────────┼────────────────────────┤
│ expanded_conv_12_expand_… │ (None, 16, 16, 672)    │          2,688 │ expanded_conv_12_expa… │
│ (BatchNormalization)      │                        │                │                        │
├───────────────────────────┼────────────────────────┼────────────────┼────────────────────────┤
│ activation_13             │ (None, 16, 16, 672)    │              0 │ expanded_conv_12_expa… │
│ (Activation)              │                        │                │                        │
├───────────────────────────┼────────────────────────┼────────────────┼────────────────────────┤
│ expanded_conv_12_depthwi… │ (None, 19, 19, 672)    │              0 │ activation_13[0][0]    │
│ (ZeroPadding2D)           │                        │                │                        │
├───────────────────────────┼────────────────────────┼────────────────┼────────────────────────┤
│ expanded_conv_12_depthwi… │ (None, 8, 8, 672)      │         16,800 │ expanded_conv_12_dept… │
│ (DepthwiseConv2D)         │                        │                │                        │
├───────────────────────────┼────────────────────────┼────────────────┼────────────────────────┤
│ expanded_conv_12_depthwi… │ (None, 8, 8, 672)      │          2,688 │ expanded_conv_12_dept… │
│ (BatchNormalization)      │                        │                │                        │
├───────────────────────────┼────────────────────────┼────────────────┼────────────────────────┤
│ activation_14             │ (None, 8, 8, 672)      │              0 │ expanded_conv_12_dept… │
│ (Activation)              │                        │                │                        │
├───────────────────────────┼────────────────────────┼────────────────┼────────────────────────┤
│ expanded_conv_12_squeeze… │ (None, 1, 1, 672)      │              0 │ activation_14[0][0]    │
│ (GlobalAveragePooling2D)  │                        │                │                        │
├───────────────────────────┼────────────────────────┼────────────────┼────────────────────────┤
│ expanded_conv_12_squeeze… │ (None, 1, 1, 168)      │        113,064 │ expanded_conv_12_sque… │
│ (Conv2D)                  │                        │                │                        │
├───────────────────────────┼────────────────────────┼────────────────┼────────────────────────┤
│ expanded_conv_12_squeeze… │ (None, 1, 1, 168)      │              0 │ expanded_conv_12_sque… │
│ (ReLU)                    │                        │                │                        │
├───────────────────────────┼────────────────────────┼────────────────┼────────────────────────┤
│ expanded_conv_12_squeeze… │ (None, 1, 1, 672)      │        113,568 │ expanded_conv_12_sque… │
│ (Conv2D)                  │                        │                │                        │
├───────────────────────────┼────────────────────────┼────────────────┼────────────────────────┤
│ add_5 (Add)               │ (None, 1, 1, 672)      │              0 │ expanded_conv_12_sque… │
├───────────────────────────┼────────────────────────┼────────────────┼────────────────────────┤
│ re_lu_16 (ReLU)           │ (None, 1, 1, 672)      │              0 │ add_5[0][0]            │
├───────────────────────────┼────────────────────────┼────────────────┼────────────────────────┤
│ multiply_5 (Multiply)     │ (None, 1, 1, 672)      │              0 │ re_lu_16[0][0]         │
├───────────────────────────┼────────────────────────┼────────────────┼────────────────────────┤
│ expanded_conv_12_squeeze… │ (None, 8, 8, 672)      │              0 │ activation_14[0][0],   │
│ (Multiply)                │                        │                │ multiply_5[0][0]       │
├───────────────────────────┼────────────────────────┼────────────────┼────────────────────────┤
│ expanded_conv_12_project  │ (None, 8, 8, 160)      │        107,520 │ expanded_conv_12_sque… │
│ (Conv2D)                  │                        │                │                        │
├───────────────────────────┼────────────────────────┼────────────────┼────────────────────────┤
│ expanded_conv_12_project… │ (None, 8, 8, 160)      │            640 │ expanded_conv_12_proj… │
│ (BatchNormalization)      │                        │                │                        │
├───────────────────────────┼────────────────────────┼────────────────┼────────────────────────┤
│ expanded_conv_13_expand   │ (None, 8, 8, 960)      │        153,600 │ expanded_conv_12_proj… │
│ (Conv2D)                  │                        │                │                        │
├───────────────────────────┼────────────────────────┼────────────────┼────────────────────────┤
│ expanded_conv_13_expand_… │ (None, 8, 8, 960)      │          3,840 │ expanded_conv_13_expa… │
│ (BatchNormalization)      │                        │                │                        │
├───────────────────────────┼────────────────────────┼────────────────┼────────────────────────┤
│ activation_15             │ (None, 8, 8, 960)      │              0 │ expanded_conv_13_expa… │
│ (Activation)              │                        │                │                        │
├───────────────────────────┼────────────────────────┼────────────────┼────────────────────────┤
│ expanded_conv_13_depthwi… │ (None, 8, 8, 960)      │         24,000 │ activation_15[0][0]    │
│ (DepthwiseConv2D)         │                        │                │                        │
├───────────────────────────┼────────────────────────┼────────────────┼────────────────────────┤
│ expanded_conv_13_depthwi… │ (None, 8, 8, 960)      │          3,840 │ expanded_conv_13_dept… │
│ (BatchNormalization)      │                        │                │                        │
├───────────────────────────┼────────────────────────┼────────────────┼────────────────────────┤
│ activation_16             │ (None, 8, 8, 960)      │              0 │ expanded_conv_13_dept… │
│ (Activation)              │                        │                │                        │
├───────────────────────────┼────────────────────────┼────────────────┼────────────────────────┤
│ expanded_conv_13_squeeze… │ (None, 1, 1, 960)      │              0 │ activation_16[0][0]    │
│ (GlobalAveragePooling2D)  │                        │                │                        │
├───────────────────────────┼────────────────────────┼────────────────┼────────────────────────┤
│ expanded_conv_13_squeeze… │ (None, 1, 1, 240)      │        230,640 │ expanded_conv_13_sque… │
│ (Conv2D)                  │                        │                │                        │
├───────────────────────────┼────────────────────────┼────────────────┼────────────────────────┤
│ expanded_conv_13_squeeze… │ (None, 1, 1, 240)      │              0 │ expanded_conv_13_sque… │
│ (ReLU)                    │                        │                │                        │
├───────────────────────────┼────────────────────────┼────────────────┼────────────────────────┤
│ expanded_conv_13_squeeze… │ (None, 1, 1, 960)      │        231,360 │ expanded_conv_13_sque… │
│ (Conv2D)                  │                        │                │                        │
├───────────────────────────┼────────────────────────┼────────────────┼────────────────────────┤
│ add_6 (Add)               │ (None, 1, 1, 960)      │              0 │ expanded_conv_13_sque… │
├───────────────────────────┼────────────────────────┼────────────────┼────────────────────────┤
│ re_lu_17 (ReLU)           │ (None, 1, 1, 960)      │              0 │ add_6[0][0]            │
├───────────────────────────┼────────────────────────┼────────────────┼────────────────────────┤
│ multiply_6 (Multiply)     │ (None, 1, 1, 960)      │              0 │ re_lu_17[0][0]         │
├───────────────────────────┼────────────────────────┼────────────────┼────────────────────────┤
│ expanded_conv_13_squeeze… │ (None, 8, 8, 960)      │              0 │ activation_16[0][0],   │
│ (Multiply)                │                        │                │ multiply_6[0][0]       │
├───────────────────────────┼────────────────────────┼────────────────┼────────────────────────┤
│ expanded_conv_13_project  │ (None, 8, 8, 160)      │        153,600 │ expanded_conv_13_sque… │
│ (Conv2D)                  │                        │                │                        │
├───────────────────────────┼────────────────────────┼────────────────┼────────────────────────┤
│ expanded_conv_13_project… │ (None, 8, 8, 160)      │            640 │ expanded_conv_13_proj… │
│ (BatchNormalization)      │                        │                │                        │
├───────────────────────────┼────────────────────────┼────────────────┼────────────────────────┤
│ expanded_conv_13_add      │ (None, 8, 8, 160)      │              0 │ expanded_conv_12_proj… │
│ (Add)                     │                        │                │ expanded_conv_13_proj… │
├───────────────────────────┼────────────────────────┼────────────────┼────────────────────────┤
│ expanded_conv_14_expand   │ (None, 8, 8, 960)      │        153,600 │ expanded_conv_13_add[… │
│ (Conv2D)                  │                        │                │                        │
├───────────────────────────┼────────────────────────┼────────────────┼────────────────────────┤
│ expanded_conv_14_expand_… │ (None, 8, 8, 960)      │          3,840 │ expanded_conv_14_expa… │
│ (BatchNormalization)      │                        │                │                        │
├───────────────────────────┼────────────────────────┼────────────────┼────────────────────────┤
│ activation_17             │ (None, 8, 8, 960)      │              0 │ expanded_conv_14_expa… │
│ (Activation)              │                        │                │                        │
├───────────────────────────┼────────────────────────┼────────────────┼────────────────────────┤
│ expanded_conv_14_depthwi… │ (None, 8, 8, 960)      │         24,000 │ activation_17[0][0]    │
│ (DepthwiseConv2D)         │                        │                │                        │
├───────────────────────────┼────────────────────────┼────────────────┼────────────────────────┤
│ expanded_conv_14_depthwi… │ (None, 8, 8, 960)      │          3,840 │ expanded_conv_14_dept… │
│ (BatchNormalization)      │                        │                │                        │
├───────────────────────────┼────────────────────────┼────────────────┼────────────────────────┤
│ activation_18             │ (None, 8, 8, 960)      │              0 │ expanded_conv_14_dept… │
│ (Activation)              │                        │                │                        │
├───────────────────────────┼────────────────────────┼────────────────┼────────────────────────┤
│ expanded_conv_14_squeeze… │ (None, 1, 1, 960)      │              0 │ activation_18[0][0]    │
│ (GlobalAveragePooling2D)  │                        │                │                        │
├───────────────────────────┼────────────────────────┼────────────────┼────────────────────────┤
│ expanded_conv_14_squeeze… │ (None, 1, 1, 240)      │        230,640 │ expanded_conv_14_sque… │
│ (Conv2D)                  │                        │                │                        │
├───────────────────────────┼────────────────────────┼────────────────┼────────────────────────┤
│ expanded_conv_14_squeeze… │ (None, 1, 1, 240)      │              0 │ expanded_conv_14_sque… │
│ (ReLU)                    │                        │                │                        │
├───────────────────────────┼────────────────────────┼────────────────┼────────────────────────┤
│ expanded_conv_14_squeeze… │ (None, 1, 1, 960)      │        231,360 │ expanded_conv_14_sque… │
│ (Conv2D)                  │                        │                │                        │
├───────────────────────────┼────────────────────────┼────────────────┼────────────────────────┤
│ add_7 (Add)               │ (None, 1, 1, 960)      │              0 │ expanded_conv_14_sque… │
├───────────────────────────┼────────────────────────┼────────────────┼────────────────────────┤
│ re_lu_18 (ReLU)           │ (None, 1, 1, 960)      │              0 │ add_7[0][0]            │
├───────────────────────────┼────────────────────────┼────────────────┼────────────────────────┤
│ multiply_7 (Multiply)     │ (None, 1, 1, 960)      │              0 │ re_lu_18[0][0]         │
├───────────────────────────┼────────────────────────┼────────────────┼────────────────────────┤
│ expanded_conv_14_squeeze… │ (None, 8, 8, 960)      │              0 │ activation_18[0][0],   │
│ (Multiply)                │                        │                │ multiply_7[0][0]       │
├───────────────────────────┼────────────────────────┼────────────────┼────────────────────────┤
│ expanded_conv_14_project  │ (None, 8, 8, 160)      │        153,600 │ expanded_conv_14_sque… │
│ (Conv2D)                  │                        │                │                        │
├───────────────────────────┼────────────────────────┼────────────────┼────────────────────────┤
│ expanded_conv_14_project… │ (None, 8, 8, 160)      │            640 │ expanded_conv_14_proj… │
│ (BatchNormalization)      │                        │                │                        │
├───────────────────────────┼────────────────────────┼────────────────┼────────────────────────┤
│ expanded_conv_14_add      │ (None, 8, 8, 160)      │              0 │ expanded_conv_13_add[… │
│ (Add)                     │                        │                │ expanded_conv_14_proj… │
├───────────────────────────┼────────────────────────┼────────────────┼────────────────────────┤
│ conv_1 (Conv2D)           │ (None, 8, 8, 960)      │        153,600 │ expanded_conv_14_add[… │
├───────────────────────────┼────────────────────────┼────────────────┼────────────────────────┤
│ conv_1_bn                 │ (None, 8, 8, 960)      │          3,840 │ conv_1[0][0]           │
│ (BatchNormalization)      │                        │                │                        │
├───────────────────────────┼────────────────────────┼────────────────┼────────────────────────┤
│ activation_19             │ (None, 8, 8, 960)      │              0 │ conv_1_bn[0][0]        │
│ (Activation)              │                        │                │                        │
└───────────────────────────┴────────────────────────┴────────────────┴────────────────────────┘
 Total params: 2,996,352 (11.43 MB)
 Trainable params: 2,971,952 (11.34 MB)
 Non-trainable params: 24,400 (95.31 KB)
MobileNetV3Large_model.trainable = False
preprocess_input = tf.keras.applications.mobilenet_v3.preprocess_input
…
